  (encoder): T5EncoderModel(
    (shared): Embedding(384, 1472)
    (encoder): T5Stack(
      (embed_tokens): Embedding(384, 1472)
      (block): ModuleList(
        (0): T5Block(
          (layer): ModuleList(
            (0): T5LayerSelfAttention(
              (SelfAttention): T5Attention(
                (q): Linear(in_features=1472, out_features=384, bias=False)
                (k): Linear(in_features=1472, out_features=384, bias=False)
                (v): Linear(in_features=1472, out_features=384, bias=False)
                (o): Linear(in_features=384, out_features=1472, bias=False)
                (relative_attention_bias): Embedding(32, 6)
              )
              (layer_norm): T5LayerNorm()
              (dropout): Dropout(p=0.1, inplace=False)
            )
            (1): T5LayerFF(
              (DenseReluDense): T5DenseGatedActDense(
                (wi_0): Linear(in_features=1472, out_features=3584, bias=False)
                (wi_1): Linear(in_features=1472, out_features=3584, bias=False)
                (wo): Linear(in_features=3584, out_features=1472, bias=False)
                (dropout): Dropout(p=0.1, inplace=False)
                (act): NewGELUActivation()
              )
              (layer_norm): T5LayerNorm()
              (dropout): Dropout(p=0.1, inplace=False)
            )
          )
        )
        (1-11): 11 x T5Block(
          (layer): ModuleList(
            (0): T5LayerSelfAttention(
              (SelfAttention): T5Attention(
                (q): Linear(in_features=1472, out_features=384, bias=False)
                (k): Linear(in_features=1472, out_features=384, bias=False)
                (v): Linear(in_features=1472, out_features=384, bias=False)
                (o): Linear(in_features=384, out_features=1472, bias=False)
              )
              (layer_norm): T5LayerNorm()
              (dropout): Dropout(p=0.1, inplace=False)
            )
            (1): T5LayerFF(
              (DenseReluDense): T5DenseGatedActDense(
                (wi_0): Linear(in_features=1472, out_features=3584, bias=False)
                (wi_1): Linear(in_features=1472, out_features=3584, bias=False)
                (wo): Linear(in_features=3584, out_features=1472, bias=False)
                (dropout): Dropout(p=0.1, inplace=False)
                (act): NewGELUActivation()
              )
              (layer_norm): T5LayerNorm()
              (dropout): Dropout(p=0.1, inplace=False)
            )
          )
        )
      )
      (final_layer_norm): T5LayerNorm()
      (dropout): Dropout(p=0.1, inplace=False)
    )
  )
…
