…
2024-09-13 11:34:41.444 | INFO     | generator.model:__init__:138 - Loading the retriever from /data/yingzi_ma/lean_project/checkpoints_PT_single_repo_no_ewc_curriculum/merged_with_new_SciLean_22d53b2f4e3db2a17
2e71da6eb9c916e62655744_lambda_0.1_epoch=7-Recall@10_val=69.13.ckpt
2024-09-13 11:34:44.591 | INFO     | generator.model:__init__:151 - RetrievalAugmentedGenerator initialized
2024-09-13 11:34:45.600 | INFO     | prover.proof_search:__init__:451 - Loaded model from /data/yingzi_ma/lean_project/model_lightning.ckpt
2024-09-13 11:34:45.602 | INFO     | prover.proof_search:__init__:452 - Using retriever: PremiseRetriever(
  (encoder): T5EncoderModel(
    (shared): Embedding(384, 1472)
    (encoder): T5Stack(
      (embed_tokens): Embedding(384, 1472)
      (block): ModuleList(
        (0): T5Block(
          (layer): ModuleList(
            (0): T5LayerSelfAttention(
              (SelfAttention): T5Attention(
                (q): Linear(in_features=1472, out_features=384, bias=False)
                (k): Linear(in_features=1472, out_features=384, bias=False)
                (v): Linear(in_features=1472, out_features=384, bias=False)
                (o): Linear(in_features=384, out_features=1472, bias=False)
                (relative_attention_bias): Embedding(32, 6)
              )
              (layer_norm): T5LayerNorm()
              (dropout): Dropout(p=0.1, inplace=False)
            )
            (1): T5LayerFF(
              (DenseReluDense): T5DenseGatedActDense(
                (wi_0): Linear(in_features=1472, out_features=3584, bias=False)
                (wi_1): Linear(in_features=1472, out_features=3584, bias=False)
                (wo): Linear(in_features=3584, out_features=1472, bias=False)
                (dropout): Dropout(p=0.1, inplace=False)
                (act): NewGELUActivation()
              )
              (layer_norm): T5LayerNorm()
              (dropout): Dropout(p=0.1, inplace=False)
            )
          )
        )
        (1-11): 11 x T5Block(
          (layer): ModuleList(
            (0): T5LayerSelfAttention(
              (SelfAttention): T5Attention(
                (q): Linear(in_features=1472, out_features=384, bias=False)
                (k): Linear(in_features=1472, out_features=384, bias=False)
                (v): Linear(in_features=1472, out_features=384, bias=False)
                (o): Linear(in_features=384, out_features=1472, bias=False)
              )
              (layer_norm): T5LayerNorm()
              (dropout): Dropout(p=0.1, inplace=False)
            )
            (1): T5LayerFF(
              (DenseReluDense): T5DenseGatedActDense(
                (wi_0): Linear(in_features=1472, out_features=3584, bias=False)
                (wi_1): Linear(in_features=1472, out_features=3584, bias=False)
                (wo): Linear(in_features=3584, out_features=1472, bias=False)
                (dropout): Dropout(p=0.1, inplace=False)
                (act): NewGELUActivation()
              )
              (layer_norm): T5LayerNorm()
              (dropout): Dropout(p=0.1, inplace=False)
            )
          )
        )
      )
      (final_layer_norm): T5LayerNorm()
      (dropout): Dropout(p=0.1, inplace=False)
    )
  )
…
