…
2024-09-21 22:29:30.764 | INFO     | generator.model:__init__:138 - Loading the retriever from /data/yingzi_ma
/lean_project/checkpoints_PT_single_repo_ewc_curriculum/merged_with_new_lean4lean_05b1f4a68c5facea96a5ee51c6a5
6fef21276e0f_lambda_0.1_epoch=13-Recall@10_val=76.62.ckpt
2024-09-21 22:29:32.657 | INFO     | generator.model:__init__:151 - RetrievalAugmentedGenerator initialized
2024-09-21 22:29:32.998 | INFO     | prover.proof_search_all_sorries:__init__:451 - Loaded model from /data/yi
ngzi_ma/lean_project/model_lightning.ckpt
2024-09-21 22:29:32.999 | INFO     | prover.proof_search_all_sorries:__init__:452 - Using retriever: PremiseRe
triever(
  (encoder): T5EncoderModel(
    (shared): Embedding(384, 1472)
    (encoder): T5Stack(
      (embed_tokens): Embedding(384, 1472)
      (block): ModuleList(
        (0): T5Block(
          (layer): ModuleList(
            (0): T5LayerSelfAttention(
              (SelfAttention): T5Attention(
                (q): Linear(in_features=1472, out_features=384, bias=False)
                (k): Linear(in_features=1472, out_features=384, bias=False)
                (v): Linear(in_features=1472, out_features=384, bias=False)
                (o): Linear(in_features=384, out_features=1472, bias=False)
                (relative_attention_bias): Embedding(32, 6)
              )
              (layer_norm): T5LayerNorm()
              (dropout): Dropout(p=0.1, inplace=False)
            )
            (1): T5LayerFF(
              (DenseReluDense): T5DenseGatedActDense(
                (wi_0): Linear(in_features=1472, out_features=3584, bias=False)
                (wi_1): Linear(in_features=1472, out_features=3584, bias=False)
                (wo): Linear(in_features=3584, out_features=1472, bias=False)
                (dropout): Dropout(p=0.1, inplace=False)
                (act): NewGELUActivation()
              )
              (layer_norm): T5LayerNorm()
              (dropout): Dropout(p=0.1, inplace=False)
            )
          )
        )
        (1-11): 11 x T5Block(
          (layer): ModuleList(
            (0): T5LayerSelfAttention(
              (SelfAttention): T5Attention(
                (q): Linear(in_features=1472, out_features=384, bias=False)
                (k): Linear(in_features=1472, out_features=384, bias=False)
                (v): Linear(in_features=1472, out_features=384, bias=False)
                (o): Linear(in_features=384, out_features=1472, bias=False)
              )
              (layer_norm): T5LayerNorm()
              (dropout): Dropout(p=0.1, inplace=False)
            )
            (1): T5LayerFF(
              (DenseReluDense): T5DenseGatedActDense(
                (wi_0): Linear(in_features=1472, out_features=3584, bias=False)
                (wi_1): Linear(in_features=1472, out_features=3584, bias=False)
                (wo): Linear(in_features=3584, out_features=1472, bias=False)
                (dropout): Dropout(p=0.1, inplace=False)
                (act): NewGELUActivation()
              )
              (layer_norm): T5LayerNorm()
              (dropout): Dropout(p=0.1, inplace=False)
            )
          )
        )
      )
      (final_layer_norm): T5LayerNorm()
      (dropout): Dropout(p=0.1, inplace=False)
    )
  )
…
