…
(GpuProver pid=877585) /home/adarsh/miniconda3/envs/ReProver/lib/python3.10/site-packages/pytorch_lightning/core/saving.py:188: Found keys that are not in the model state dict but in the checkpoint: ['pytorch-lightning_version', 'global_step',
'epoch', 'state_dict', 'callbacks', 'loops', 'legacy_pytorch-lightning_version', 'hyper_parameters']
(GpuProver pid=877585) 2024-06-02 12:15:19.792 | INFO     | prover.proof_search:__init__:370 - Loaded model from /raid/adarsh/kaiyuy_leandojo-lean4-retriever-tacgen-byt5-small/model_lightning.ckpt
(GpuProver pid=877585) 2024-06-02 12:15:19.793 | INFO     | prover.proof_search:__init__:371 - Using retriever: PremiseRetriever(
(GpuProver pid=877585)   (encoder): T5EncoderModel(
(GpuProver pid=877585)     (shared): Embedding(384, 1472)
(GpuProver pid=877585)     (encoder): T5Stack(
(GpuProver pid=877585)       (embed_tokens): Embedding(384, 1472)
(GpuProver pid=877585)       (block): ModuleList(
(GpuProver pid=877585)         (0): T5Block(
(GpuProver pid=877585)           (layer): ModuleList(
(GpuProver pid=877585)             (0): T5LayerSelfAttention(
(GpuProver pid=877585)               (SelfAttention): T5Attention(
(GpuProver pid=877585)                 (q): Linear(in_features=1472, out_features=384, bias=False)
(GpuProver pid=877585)                 (k): Linear(in_features=1472, out_features=384, bias=False)
(GpuProver pid=877585)                 (v): Linear(in_features=1472, out_features=384, bias=False)
(GpuProver pid=877585)                 (o): Linear(in_features=384, out_features=1472, bias=False)
(GpuProver pid=877585)                 (relative_attention_bias): Embedding(32, 6)
(GpuProver pid=877585)               )
(GpuProver pid=877585)               (layer_norm): T5LayerNorm()
(GpuProver pid=877585)               (dropout): Dropout(p=0.1, inplace=False)
(GpuProver pid=877585)             )
(GpuProver pid=877585)             (1): T5LayerFF(
(GpuProver pid=877585)               (DenseReluDense): T5DenseGatedActDense(
(GpuProver pid=877585)                 (wi_0): Linear(in_features=1472, out_features=3584, bias=False)
(GpuProver pid=877585)                 (wi_1): Linear(in_features=1472, out_features=3584, bias=False)
(GpuProver pid=877585)                 (wo): Linear(in_features=3584, out_features=1472, bias=False)
(GpuProver pid=877585)                 (dropout): Dropout(p=0.1, inplace=False)
(GpuProver pid=877585)                 (act): NewGELUActivation()
(GpuProver pid=877585)               )
(GpuProver pid=877585)               (layer_norm): T5LayerNorm()
(GpuProver pid=877585)               (dropout): Dropout(p=0.1, inplace=False)
(GpuProver pid=877585)             )
(GpuProver pid=877585)           )
(GpuProver pid=877585)         )
(GpuProver pid=877585)         (1-11): 11 x T5Block(
(GpuProver pid=877585)           (layer): ModuleList(
(GpuProver pid=877585)             (0): T5LayerSelfAttention(
(GpuProver pid=877585)               (SelfAttention): T5Attention(
(GpuProver pid=877585)                 (q): Linear(in_features=1472, out_features=384, bias=False)
(GpuProver pid=877585)                 (k): Linear(in_features=1472, out_features=384, bias=False)
(GpuProver pid=877585)                 (v): Linear(in_features=1472, out_features=384, bias=False)
(GpuProver pid=877585)                 (o): Linear(in_features=384, out_features=1472, bias=False)
(GpuProver pid=877585)               )
(GpuProver pid=877585)               (layer_norm): T5LayerNorm()
(GpuProver pid=877585)               (dropout): Dropout(p=0.1, inplace=False)
(GpuProver pid=877585)             )
(GpuProver pid=877585)             (1): T5LayerFF(
(GpuProver pid=877585)               (DenseReluDense): T5DenseGatedActDense(
(GpuProver pid=877585)                 (wi_0): Linear(in_features=1472, out_features=3584, bias=False)
(GpuProver pid=877585)                 (wi_1): Linear(in_features=1472, out_features=3584, bias=False)
(GpuProver pid=877585)                 (wo): Linear(in_features=3584, out_features=1472, bias=False)
(GpuProver pid=877585)                 (dropout): Dropout(p=0.1, inplace=False)
(GpuProver pid=877585)                 (act): NewGELUActivation()
(GpuProver pid=877585)               )
(GpuProver pid=877585)               (layer_norm): T5LayerNorm()
(GpuProver pid=877585)               (dropout): Dropout(p=0.1, inplace=False)
(GpuProver pid=877585)             )
…
'epoch', 'state_dict', 'callbacks', 'loops', 'legacy_pytorch-lightning_version', 'hyper_parameters'] [repeated 4x across cluster]
(GpuProver pid=877589) 2024-06-02 12:15:20.345 | INFO     | prover.proof_search:__init__:370 - Loaded model from /raid/adarsh/kaiyuy_leandojo-lean4-retriever-tacgen-byt5-small/model_lightning.ckpt [repeated 4x across cluster]
(GpuProver pid=877589) 2024-06-02 12:15:20.346 | INFO     | prover.proof_search:__init__:371 - Using retriever: PremiseRetriever( [repeated 4x across cluster]
(GpuProver pid=877589)     (encoder): T5Stack( [repeated 8x across cluster]
(GpuProver pid=877589)     (shared): Embedding(384, 1472) [repeated 4x across cluster]
(GpuProver pid=877589)       (embed_tokens): Embedding(384, 1472) [repeated 4x across cluster]
(GpuProver pid=877589)       (block): ModuleList( [repeated 4x across cluster]
(GpuProver pid=877589)             (1): T5LayerFF( [repeated 20x across cluster]
(GpuProver pid=877589)           (layer): ModuleList( [repeated 8x across cluster]
(GpuProver pid=877589)               (SelfAttention): T5Attention( [repeated 8x across cluster]
(GpuProver pid=877589)                 (q): Linear(in_features=1472, out_features=384, bias=False) [repeated 8x across cluster]
(GpuProver pid=877589)                 (k): Linear(in_features=1472, out_features=384, bias=False) [repeated 8x across cluster]
(GpuProver pid=877589)                 (v): Linear(in_features=1472, out_features=384, bias=False) [repeated 8x across cluster]
(GpuProver pid=877589)                 (o): Linear(in_features=384, out_features=1472, bias=False) [repeated 8x across cluster]
(GpuProver pid=877589)                 (relative_attention_bias): Embedding(32, 6) [repeated 4x across cluster]
(GpuProver pid=877589) ) [repeated 64x across cluster]
(GpuProver pid=877589)               (layer_norm): T5LayerNorm() [repeated 16x across cluster]
(GpuProver pid=877589)       (dropout): Dropout(p=0.1, inplace=False) [repeated 28x across cluster]
(GpuProver pid=877589)               (DenseReluDense): T5DenseGatedActDense( [repeated 8x across cluster]
(GpuProver pid=877589)                 (wi_1): Linear(in_features=1472, out_features=3584, bias=False) [repeated 16x across cluster]
(GpuProver pid=877589)                 (wo): Linear(in_features=3584, out_features=1472, bias=False) [repeated 8x across cluster]
(GpuProver pid=877589)                 (act): NewGELUActivation() [repeated 8x across cluster]
(GpuProver pid=877589)         (1-11): 11 x T5Block( [repeated 4x across cluster]
(GpuProver pid=877589)       (final_layer_norm): T5LayerNorm() [repeated 4x across cluster]
(GpuProver pid=877589) 2024-06-02 12:15:20.346 | INFO     | prover.proof_search:__init__:374 - Loading indexed corpus from /raid/adarsh/data/lecopivo/SciLean/e21a3ecdc0442bf795ea665d3a4bdbc5be22602d/corpus.jsonl [repeated 4x across cluster]
…
