…
(GpuProver pid=66143) /home/adarsh/miniconda3/envs/ReProver/lib/python3.10/site-packages/pytorch_lightning/core/saving.py:188: Found keys that are not in the model state dict but in the checkpoint: [
'pytorch-lightning_version', 'global_step', 'epoch', 'state_dict', 'callbacks', 'loops', 'legacy_pytorch-lightning_version', 'hyper_parameters']
(GpuProver pid=66143) 2024-06-03 17:11:44.402 | INFO     | prover.proof_search:__init__:370 - Loaded model from /raid/adarsh/kaiyuy_leandojo-lean4-retriever-tacgen-byt5-small/model_lightning.ckpt
(GpuProver pid=66143) 2024-06-03 17:11:44.403 | INFO     | prover.proof_search:__init__:371 - Using retriever: PremiseRetriever(
(GpuProver pid=66143)   (encoder): T5EncoderModel(
(GpuProver pid=66143)     (shared): Embedding(384, 1472)
(GpuProver pid=66143)     (encoder): T5Stack(
(GpuProver pid=66143)       (embed_tokens): Embedding(384, 1472)
(GpuProver pid=66143)       (block): ModuleList(
(GpuProver pid=66143)         (0): T5Block(
(GpuProver pid=66143)           (layer): ModuleList(
(GpuProver pid=66143)             (0): T5LayerSelfAttention(
(GpuProver pid=66143)               (SelfAttention): T5Attention(
(GpuProver pid=66143)                 (q): Linear(in_features=1472, out_features=384, bias=False)
(GpuProver pid=66143)                 (k): Linear(in_features=1472, out_features=384, bias=False)
(GpuProver pid=66143)                 (v): Linear(in_features=1472, out_features=384, bias=False)
(GpuProver pid=66143)                 (o): Linear(in_features=384, out_features=1472, bias=False)
(GpuProver pid=66143)                 (relative_attention_bias): Embedding(32, 6)
(GpuProver pid=66143)               )
(GpuProver pid=66143)               (layer_norm): T5LayerNorm()
(GpuProver pid=66143)               (dropout): Dropout(p=0.1, inplace=False)
(GpuProver pid=66143)             )
(GpuProver pid=66143)             (1): T5LayerFF(
(GpuProver pid=66143)               (DenseReluDense): T5DenseGatedActDense(
(GpuProver pid=66143)                 (wi_0): Linear(in_features=1472, out_features=3584, bias=False)
(GpuProver pid=66143)                 (wi_1): Linear(in_features=1472, out_features=3584, bias=False)
(GpuProver pid=66143)                 (wo): Linear(in_features=3584, out_features=1472, bias=False)
(GpuProver pid=66143)                 (dropout): Dropout(p=0.1, inplace=False)
(GpuProver pid=66143)                 (act): NewGELUActivation()
(GpuProver pid=66143)               )
(GpuProver pid=66143)               (layer_norm): T5LayerNorm()
(GpuProver pid=66143)               (dropout): Dropout(p=0.1, inplace=False)
(GpuProver pid=66143)             )
(GpuProver pid=66143)           )
(GpuProver pid=66143)         )
(GpuProver pid=66143)         (1-11): 11 x T5Block(
(GpuProver pid=66143)           (layer): ModuleList(
(GpuProver pid=66143)             (0): T5LayerSelfAttention(
(GpuProver pid=66143)               (SelfAttention): T5Attention(
(GpuProver pid=66143)                 (q): Linear(in_features=1472, out_features=384, bias=False)
(GpuProver pid=66143)                 (k): Linear(in_features=1472, out_features=384, bias=False)
(GpuProver pid=66143)                 (v): Linear(in_features=1472, out_features=384, bias=False)
(GpuProver pid=66143)                 (o): Linear(in_features=384, out_features=1472, bias=False)
(GpuProver pid=66143)               )
(GpuProver pid=66143)               (layer_norm): T5LayerNorm()
(GpuProver pid=66143)               (dropout): Dropout(p=0.1, inplace=False)
(GpuProver pid=66143)             )
(GpuProver pid=66143)             (1): T5LayerFF(
(GpuProver pid=66143)               (DenseReluDense): T5DenseGatedActDense(
(GpuProver pid=66143)                 (wi_0): Linear(in_features=1472, out_features=3584, bias=False)
(GpuProver pid=66143)                 (wi_1): Linear(in_features=1472, out_features=3584, bias=False)
(GpuProver pid=66143)                 (wo): Linear(in_features=3584, out_features=1472, bias=False)
(GpuProver pid=66143)                 (dropout): Dropout(p=0.1, inplace=False)
(GpuProver pid=66143)                 (act): NewGELUActivation()
(GpuProver pid=66143)               )
(GpuProver pid=66143)               (layer_norm): T5LayerNorm()
(GpuProver pid=66143)               (dropout): Dropout(p=0.1, inplace=False)
(GpuProver pid=66143)             )
…
'pytorch-lightning_version', 'global_step', 'epoch', 'state_dict', 'callbacks', 'loops', 'legacy_pytorch-lightning_version', 'hyper_parameters'] [repeated 4x across cluster]
(GpuProver pid=66146) 2024-06-03 17:11:44.572 | INFO     | prover.proof_search:__init__:370 - Loaded model from /raid/adarsh/kaiyuy_leandojo-lean4-retriever-tacgen-byt5-small/model_lightning.ckpt [re
peated 4x across cluster]
(GpuProver pid=66146) 2024-06-03 17:11:44.573 | INFO     | prover.proof_search:__init__:371 - Using retriever: PremiseRetriever( [repeated 4x across cluster]
(GpuProver pid=66146)     (encoder): T5Stack( [repeated 8x across cluster]
(GpuProver pid=66146)     (shared): Embedding(384, 1472) [repeated 4x across cluster]
(GpuProver pid=66146)       (embed_tokens): Embedding(384, 1472) [repeated 4x across cluster]
(GpuProver pid=66146)       (block): ModuleList( [repeated 4x across cluster]
(GpuProver pid=66146)             (1): T5LayerFF( [repeated 20x across cluster]
(GpuProver pid=66146)           (layer): ModuleList( [repeated 8x across cluster]
(GpuProver pid=66146)               (SelfAttention): T5Attention( [repeated 8x across cluster]
(GpuProver pid=66146)                 (q): Linear(in_features=1472, out_features=384, bias=False) [repeated 8x across cluster]
(GpuProver pid=66146)                 (k): Linear(in_features=1472, out_features=384, bias=False) [repeated 8x across cluster]
(GpuProver pid=66146)                 (v): Linear(in_features=1472, out_features=384, bias=False) [repeated 8x across cluster]
(GpuProver pid=66146)                 (o): Linear(in_features=384, out_features=1472, bias=False) [repeated 8x across cluster]
(GpuProver pid=66146)                 (relative_attention_bias): Embedding(32, 6) [repeated 4x across cluster]
(GpuProver pid=66146) ) [repeated 64x across cluster]
(GpuProver pid=66146)               (layer_norm): T5LayerNorm() [repeated 16x across cluster]
(GpuProver pid=66146)       (dropout): Dropout(p=0.1, inplace=False) [repeated 28x across cluster]
(GpuProver pid=66146)               (DenseReluDense): T5DenseGatedActDense( [repeated 8x across cluster]
(GpuProver pid=66146)                 (wi_1): Linear(in_features=1472, out_features=3584, bias=False) [repeated 16x across cluster]
(GpuProver pid=66146)                 (wo): Linear(in_features=3584, out_features=1472, bias=False) [repeated 8x across cluster]
(GpuProver pid=66146)                 (act): NewGELUActivation() [repeated 8x across cluster]
(GpuProver pid=66146)         (1-11): 11 x T5Block( [repeated 4x across cluster]
(GpuProver pid=66146)       (final_layer_norm): T5LayerNorm() [repeated 4x across cluster]
(GpuProver pid=66146) 2024-06-03 17:11:44.574 | INFO     | prover.proof_search:__init__:374 - Loading indexed corpus from /raid/adarsh/data/dwrensha/compfiles/33564a3e232470b0632e45ab3c03498ec297443e
…
